examples/conv_attention/tb_logs/c_dimer_nedos_400_tb/version_0/checkpoints/epoch=0-step=200.ckpt (torch, 412664 bytes, 39 tensors)

model.conv1D.weight f4 [2, 1, 4]
000000 35 5e ad bc 2a 90 ca b9 c2 aa 96 3e b3 12 ab 3e
       -0.021163085 -0.00038635853 0.29427153 0.33412704
000010 8b 46 b1 3c 6a 6f b8 3e ab a6 1f be 51 d0 cc 3e
       0.021640083 0.36022502 -0.15590923 0.40002683

model.conv1D.bias f4 [2]
000000 e1 75 1b 3d 59 59 31 be
       0.037954215 -0.1731924

model.attention.proj_in.weight f4 [2, 1]
000000 3b 6f 33 bf 19 c1 74 3e
       -0.700916 0.23901786

model.attention.proj_in.bias f4 [2]
000000 d5 d3 40 bf 7f 4d 9f be
       -0.7532323 -0.31113812

model.attention.mha.in_proj_weight f4 [6, 2]
000000 9e 31 8b 3d c4 34 ff be 01 1f 4d 3f ed b8 8b be
       0.06796573 -0.49844944 0.80125433 -0.27289525
000010 71 25 0c 3f c4 60 bd be a6 c3 2e 3f 21 64 d1 3e
       0.5474463 -0.3698789 0.68267286 0.40896705
000020 33 f3 21 3f b6 4f bc be 97 5c 7b bd 76 99 22 3f
       0.6326172 -0.36779565 -0.061367597 0.6351541

model.attention.mha.in_proj_bias f4 [6]
000000 b5 55 3c 3c 68 ca 45 3c df 67 80 38 03 12 43 b8
       0.0114950435 0.012072183 6.122863e-05 -4.6508398e-05
000010 e6 09 2e 3c 72 07 18 3c
       0.010622477 0.009279119

model.attention.mha.out_proj.weight f4 [2, 2]
000000 13 c6 28 3f 7b 8f 95 be c2 e2 f3 be 60 4a 67 bd
       0.6592724 -0.2921103 -0.4763394 -0.056467414

model.attention.mha.out_proj.bias f4 [2]
000000 5c 2c 74 3c de 09 21 bc
       0.014903154 -0.009829013

model.attention.proj_out.weight f4 [1, 2]
000000 60 f5 9f 3c 55 bd 58 be
       0.019526184 -0.21165974

model.layers.0.weight f4 [128, 250]
000000 de 27 1f 3d 14 61 df 3c 81 0d 92 bc 95 60 80 3d
       0.03885638 0.02726797 -0.017828705 0.062684216
000010 70 62 96 3c 63 81 0f bd 5f 83 41 bd 60 00 76 3b
       0.018357486 -0.035035502 -0.047244426 0.0037536845
000020 80 ab 96 bc 42 b9 34 bd aa 40 e6 3b 34 cf 1d bd
       -0.018392324 -0.044121988 0.0070267515 -0.038527682
000030 7c d4 5b 3d 9b 80 e6 3b 5a cc bf bc cd 81 47 3d
       0.053669438 0.007034374 -0.023412872 0.048707772
000040 4d 8c 02 3d a2 79 a6 3c 37 2a 43 bc 65 c2 80 3c
       0.031872083 0.02032167 -0.01191192 0.015717695
000050 0b e8 ba 3a b3 ee 66 bd aa af e1 bc 59 62 c5 3c
       0.0014259828 -0.056379985 -0.027549583 0.024094747
000060 ff d3 68 3b 41 cc dc bc 7e 93 22 bc 57 6e 2b ba
       0.003552675 -0.026952865 -0.00992286 -0.0006539574
000070 96 da 0f 3c 83 0e 68 3c c4 16 17 bd ee eb 6d 3c
       0.008780142 0.014163616 -0.036886945 0.014521582
000080 a9 76 ca bc 07 67 e2 bc 00 17 f4 bc 5c 9e 03 3d
       -0.024714785 -0.027637018 -0.029796124 0.032133445
000090 2e 2f 4b 3d dc d5 42 bd 95 df 7f 3d 2b 28 f4 bc
       0.04960554 -0.047567233 0.062469084 -0.02980431
0000a0 0f 18 33 3c 6b aa db bc fc f8 3b 3d a5 a8 cb 3c
       0.010931029 -0.02681466 0.045891747 0.02486069
0000b0 24 5b 6a 3c bd 4d 13 3d a4 60 3e 3c 4f 6c 2f bd
       0.014303956 0.03596281 0.011619721 -0.0428279
0000c0 a4 1e 3d 3d 31 06 57 3d 7a ad 2b 3d 04 21 9a 3c
       0.0461718 0.05249614 0.041913487 0.018814571
0000d0 5e cf 83 bc 82 b4 11 bd 67 8d e2 3c ac 35 81 3d
       -0.016090091 -0.035572536 0.027655317 0.06309065
0000e0 3e ba 40 3d 8b 16 89 3c df c5 2b 3a 33 6f 55 bd
       0.047052614 0.016734382 0.00065526174 -0.052108
0000f0 f7 2c 17 bd 47 77 55 3d 53 42 42 3c fd b3 0e bc
       -0.036908116 0.052115705 0.011856633 -0.008709905
000100 63 37 cc 3c b7 f6 5f 3c a5 fe 33 3d 63 f1 4d 3d
       0.024928754 0.013669661 0.04394402 0.050279032
000110 7e 46 17 bd 4a 90 9e bc 5c be 72 3c 30 f4 02 3d
       -0.03693246 -0.019355912 0.014815893 0.031971157
000120 73 e4 6c bd 89 05 53 bc 1f f6 2b bd 2c 10 35 3d
       -0.057835054 -0.012879738 -0.041982766 0.044204876
000130 bb 0c cd 3c ed ba 16 bd 41 b2 6b bd a8 f7 f2 3b
       0.025030484 -0.03679936 -0.057543043 0.007414777
000140 1a b7 06 3c 22 7f 81 3d 5c 8e 80 bd a7 97 93 bb
       0.008222366 0.06323077 -0.06277153 -0.0045041624
000150 b2 3a 71 bc 1d bd 2b 3c 43 d5 ef bb de d8 10 3d
       -0.014723467 0.0104821 -0.007319124 0.03536307
000160 0f 0f 22 3b 01 c6 38 3d 51 b6 01 3b 7e 3b 57 bd
       0.0024728214 0.045110706 0.0019792507 -0.05254697
000170 93 f3 35 3d 3f 7a d7 bc b3 43 df bb 7c 9e 56 3d
       0.044421744 -0.026303409 -0.0068134903 0.052397236
000180 44 ca b9 3c 23 a7 08 bd d2 07 28 3d 52 d7 11 bd
       0.022679456 -0.03336252 0.041023083 -0.035605736
000190 a0 49 2f bd 75 8f f1 bc 31 30 02 bc 40 db 74 bd
       -0.042794824 -0.029487351 -0.00794606 -0.059779406
0001a0 0d ca 7e bc dd 33 37 ba 30 26 1a 3c 84 2b a9 ba
       -0.015551102 -0.0006988624 0.009408519 -0.0012906645
0001b0 99 43 08 bd d4 ca 4f bd 40 49 c9 bb ed 05 76 bd
       -0.03326759 -0.05073054 -0.0061427653 -0.060064245
0001c0 3e 55 be 3c c3 2f 67 3d a5 ed 19 bb ee 37 1e bd
       0.023234006 0.056442033 -0.0023487594 -0.038627557
0001d0 e5 89 75 bd 73 7d 48 3d b5 43 33 bd f5 ca ff bc
       -0.05994596 0.048947763 -0.043765742 -0.031224707
0001e0 da 2b 32 bd f7 b7 24 3d dc 67 0f 3c 5b 94 76 bd
       -0.04349885 0.040214505 0.008752789 -0.060200077
0001f0 d8 14 63 bc 06 22 c3 3c 3e 69 70 bd c4 38 12 bc
       -0.01385995 0.023819935 -0.058694117 -0.008924667
000200 5e 3c 12 bd 2d d0 5c bc 79 43 43 bd 0b 30 6c bc
       -0.035702102 -0.013477367 -0.04767177 -0.014415751
000210 22 e6 0a bc 70 48 2a bc f1 3b 7f 3d 84 a7 19 bd
       -0.0084777195 -0.010393247 0.062313024 -0.03751327
000220 79 7f 30 3d 2d 53 2b 3d f7 10 98 3c 8e 1b 08 bc
       0.043090317 0.04182737 0.018562777 -0.008307351
000230 e3 ff b4 bc 09 e0 1a bc 88 9b 22 bd 16 3c 45 bc
       -0.022094673 -0.009452828 -0.039699107 -0.012038251
000240 c6 9e 46 3d 10 fe 18 3d b7 0c a2 bb 74 65 0d 3c
       0.048491262 0.037351668 -0.0049453634 0.008630145
000250 2d 41 24 bd 2a f6 ad 3c ce fa a9 3c 75 fa a2 bc
       -0.04010122 0.021235544 0.020749476 -0.019894818
000260 8c 77 f5 3c 51 7b 7d bd b9 41 75 3c 2c e5 83 bc
       0.029964231 -0.06188518 0.014969283 -0.016100489
000270 33 b4 64 bd ff 29 cc bb 70 b1 28 bd 98 f2 7e 3d
       -0.055835914 -0.0062305923 -0.041184843 0.062243074
000280 ad f5 fe 3c c0 2b 23 bd e1 59 c0 3c 2c 31 10 bc
       0.031123007 -0.039836645 0.023480358 -0.008800786
000290 d4 38 99 bc 04 f0 da bc 29 8b 94 bc 93 fb 19 bd
       -0.018703856 -0.026725776 -0.018132763 -0.037593435
0002a0 3c 55 08 bc 9b 4b ad 3c 91 eb 32 bd 6f bf ce 3c
       -0.008321103 0.021154216 -0.043681685 0.025237767
0002b0 75 77 92 3c 72 ad 41 3c 12 ee 44 3c 87 ff 44 3d
       0.017879227 0.011821138 0.012019651 0.048095252
0002c0 e5 56 fc 3c db 69 32 3d bd ae f3 bc db 46 18 bd
       0.030803153 0.043557983 -0.029746408 -0.037176948
0002d0 11 9d 5c bd d7 00 0b 3d 95 18 c2 3c 41 3f 2c bd
       -0.053860728 0.033936348 0.023693362 -0.04205251
0002e0 f4 77 b9 3a 98 da 80 bd 61 61 25 bd 6d 01 7f bb
       0.0014150129 -0.062916934 -0.04037607 -0.0038910762
0002f0 ed bf f3 bc bb 44 4b bd a3 a4 65 3b be 73 17 3d
       -0.029754603 -0.049626093 0.0035040758 0.036975615
000300 5f 8b c1 bc 62 f1 a3 3c 39 ed 7a bd 37 26 98 3b
       -0.023626028 0.020012561 -0.06126139 0.0046432274
000310 64 7d 11 3d 01 b8 0e bc e8 7b 50 3d 71 ab a7 bc
       0.035519972 -0.008710862 0.050899416 -0.020467492
000320 3a 85 e8 bc 72 93 72 3d 09 e7 59 bd 10 0b 4a bc
       -0.02838384 0.059222646 -0.053198848 -0.012331739
000330 df db e1 3c 46 61 c6 bc d7 6e 46 bd f2 57 63 bc
       0.027570663 -0.024216305 -0.04844555 -0.013875948
000340 f0 21 39 bb 82 e1 0c 3d 8b 84 e0 ba cf 43 28 3d
       -0.0028248988 0.03439475 -0.0017129345 0.041080292
000350 d5 5f 39 3d 84 c4 fd bc 97 71 1c bd 33 d9 9f bc
       0.04525741 -0.030977495 -0.038194265 -0.019512748
000360 66 9d 05 bd 1e 4d 0c 3d aa 45 e9 bc 03 11 09 3d
       -0.03262081 0.034253232 -0.028475601 0.03346349
000370 e8 44 69 bd f9 40 60 bd 9d 8c 08 bd 10 d9 6a 3c
       -0.05695048 -0.054749463 -0.033337224 0.014333978
000380 3f 23 1d bd 94 62 51 bd ca ea 0a 3d bb 49 13 bb
       -0.03836369 -0.051119402 0.03391532 -0.0022474367
000390 e4 5d 45 bc 40 ca 70 3d 15 39 80 bd 30 c6 27 bd
       -0.012046311 0.05878663 -0.062608875 -0.04096049
0003a0 e8 d4 68 3d 96 6c ba bb d9 2e 3d bc 0f 80 a1 bc
       0.05684367 -0.005689214 -0.011546814 -0.019714383
0003b0 8a 78 6d bd ee cc f0 3b fb 2f 2b 3d 67 3f 69 bd
       -0.057976283 0.0073486483 0.041793805 -0.05694523
0003c0 ee 9c b0 bc f8 fd 0d 3c cd 80 15 3d f5 4d 24 3b
       -0.021559205 0.008666508 0.036499787 0.002507088
0003d0 38 52 ef b9 de a9 5c bd 63 2b 39 bd 4b 93 49 bd
       -0.0004564689 -0.053872935 -0.045207392 -0.049212735
0003e0 ee 5a 59 ba 33 ef 63 3c 2a da 15 bd bf 71 bd 3c
       -0.00082914426 0.01391201 -0.03658501 0.023125527
0003f0 93 27 6c bd d9 48 08 bd b8 8b bc 3c 7a db b2 b9
       -0.05765493 -0.033272598 0.023015842 -0.00034114328

model.layers.0.bias f4 [128]
000000 ca 24 42 bd 78 d6 5b 3b a0 d1 9b 3d 05 96 38 3d
       -0.047398366 0.0033544581 0.07608342 0.045064945
000010 cb b3 c0 3c ca 05 39 ba b8 04 fa 3c 93 01 bc bc
       0.023523232 -0.00070580526 0.030519828 -0.02294997
000020 11 0f 3c 3d 31 eb c3 bc 4b bf cb 3c 31 0d 52 bd
       0.045912806 -0.023915859 0.024871489 -0.05128211
000030 5c cb 70 bd 87 9a b7 bc 06 0a 65 bd 60 94 88 bc
       -0.05878769 -0.022412552 -0.055917762 -0.016672313
000040 86 1b 81 3d ec 16 d8 3c 37 e8 4c 3d 8b 9b 56 3c
       0.06304078 0.026378118 0.050026145 0.013098608
000050 fe 13 b9 bc 09 19 af 3c 2b fd 16 bd 14 4a b2 3c
       -0.02259254 0.021374242 -0.036862534 0.021763839
000060 cf 3b 78 3d a2 ac 4b 3d ac 65 0d 3c 47 4c 75 bc
       0.060603913 0.049725182 0.0086301975 -0.014971799
000070 0b 87 09 bd a8 6c 39 bc 71 41 02 3d 48 1f 72 bd
       -0.033576053 -0.01131741 0.03180069 -0.059111863
000080 60 b1 82 3c ff d2 3a 3d 88 40 83 3d 71 23 20 3d
       0.01595372 0.045611378 0.06408793 0.0390963
000090 87 f3 47 3c 99 7e a5 bc e8 32 e2 bc d4 d1 4a bd
       0.012204058 -0.020201968 -0.027612165 -0.049516514
0000a0 27 e3 35 bd 66 87 5c 3d 30 99 60 3d 8f 58 0f 3d
       -0.044406082 0.053840064 0.05483359 0.034996565
0000b0 27 17 72 bd be f9 b7 3c 10 33 f9 bc ef f3 10 3c
       -0.05910411 0.022457954 -0.030419856 0.008847221
0000c0 2a 1e 7f bd df 8d a6 bc 71 ec 1a 3d 93 63 c4 bb
       -0.062284626 -0.020331321 0.037823144 -0.0059933155
0000d0 be b7 2b 3d 79 5a 3b 3d a6 35 57 3d 5e 4c 76 3c
       0.041923277 0.04574058 0.052541398 0.015032856
0000e0 e1 e9 a5 bb 37 c6 47 3d 5b 77 04 bc 54 51 19 3d
       -0.005063281 0.048773017 -0.008085097 0.037431076
0000f0 07 ab 29 bd b9 4d c0 3c a6 c0 20 3d 23 71 b2 bc
       -0.04142287 0.023474561 0.039246224 -0.021782463
000100 12 d9 10 3d 34 4e 98 3c 41 03 37 3d 98 94 92 3b
       0.035363264 0.018591978 0.044680838 0.00447328
000110 fe d9 3b bd b6 28 61 3d 2e b3 59 bd ea cb 25 bd
       -0.04586219 0.054970466 -0.053149395 -0.04047767
000120 2d 10 aa 3b 40 79 10 bd d5 fa a4 3c b1 28 87 3c
       0.0051899166 -0.035271883 0.020139137 0.016498895
000130 f2 76 ad bc db c8 a1 3c 76 68 51 bd 8b e4 15 3d
       -0.021174882 0.019749096 -0.051125012 0.03659491
000140 8e d0 15 39 cd f9 3a 3d 49 53 48 bb 52 56 7e bd
       0.0001428744 0.045648385 -0.003056722 -0.06209404
000150 8c c4 46 3c b0 36 16 3c 9e 78 19 3d d6 a8 71 bc
       0.012131821 0.009168312 0.037468545 -0.014749726
000160 e9 d5 a5 bc ff af dc 3c e6 e4 a6 ba 03 b9 17 bd
       -0.020243602 0.02693939 -0.0012733012 -0.037041675
000170 46 6a 24 3a 2f 63 60 bc 4a f5 1c 3b 5f 44 28 bd
       0.00062719395 -0.013695522 0.0023949915 -0.04108083
000180 79 58 e2 3c ab 4c 98 bc 20 68 40 bd 22 11 19 3d
       0.027630078 -0.018591246 -0.0469743 0.037369855
000190 36 41 75 bd a7 83 a9 3c 6d 59 9f bc eb ef f8 3c
       -0.059876643 0.02069266 -0.019451821 0.03038784
0001a0 a6 5f ee 3c ac e6 0c 3d de 2d 27 bd ff 51 bc bc
       0.029098343 0.034399673 -0.040815227 -0.022988318
0001b0 28 81 57 bd e5 be 14 bd 35 9d 1f bd de b2 48 bd
       -0.052613407 -0.036314864 -0.038968284 -0.048998706
0001c0 ea 8a 69 3c a2 b3 15 3d 9c 59 40 3d 6d 2d 06 3d
       0.014254311 0.036548264 0.04696046 0.032758165
0001d0 a6 f6 de bc 95 16 93 bc 13 f4 07 bd b9 0d 25 3c
       -0.02721722 -0.017955104 -0.03319175 0.0100740725
0001e0 77 1c a2 3c 3f 38 b9 bc 63 22 f6 bc 32 8b 45 bd
       0.019788964 -0.022609828 -0.030045694 -0.04822845
0001f0 b2 01 46 bd 7c b7 28 3d cd fb 75 3d aa 4f 32 bc
       -0.04834146 0.04119061 0.06005459 -0.010883251

model.layers.3.weight f4 [5, 128]
000000 13 db 83 bd 2d 88 8d bc 7c 01 a4 3d 59 3b 67 bc
       -0.064382695 -0.017276848 0.080080956 -0.014113271
000010 f2 90 61 3d 06 0a 92 3d 48 74 ab bc 91 84 83 bd
       0.05506987 0.07130818 -0.02092947 -0.064217694
000020 35 c0 3b 3c ca 69 61 bc 32 fd d2 3d bd ee 8f 3c
       0.0114594 -0.013758132 0.103021994 0.017569894
000030 93 f8 04 3d e1 a9 3e 3d c8 d3 5a bc 73 50 37 3d
       0.03246362 0.046548728 -0.013356157 0.044754457
000040 ea 66 85 bd e6 9f ef bb 37 3b 4c 3d 28 49 7d 3c
       -0.0651377 -0.0073127626 0.04986116 0.015459336
000050 92 06 82 3d 2f 2c c6 bc 31 20 68 3c eb 8f 7e 3d
       0.063489094 -0.02419099 0.014167831 0.06214897
000060 53 59 16 3d 2b 4b 56 3d ec 0e 5e bc a7 1c 3b 3d
       0.03670628 0.05231778 -0.013553362 0.045681622
000070 ad 3a 79 3d 4d 1c 44 3c a8 08 09 3d ba 3c 85 bd
       0.060846973 0.011969638 0.03345552 -0.06505723
000080 b6 e8 86 3d 96 ed b0 bc c6 26 b2 3d e5 1e cc 3d
       0.06587355 -0.021597665 0.08698802 0.0996683
000090 ca 1f 4d bc 1e 4f b6 3d 26 e8 ad 3c 9b 5d b0 bc
       -0.012519786 0.08901809 0.021228861 -0.02152901
0000a0 5e c0 5d bd 48 64 6b bd 67 37 bc 3c 0c 1d b2 bc
       -0.054138534 -0.057468683 0.022975637 -0.021742366
0000b0 aa e3 97 bd bf b0 d3 3b 66 92 9e 3c f4 a8 7f 3d
       -0.0741647 0.0064602788 0.019356918 0.062416986
0000c0 35 a8 01 bd 27 db ae bd 75 fa d1 3c af 32 3d 3c
       -0.031654555 -0.08537894 0.025632123 0.011547728
0000d0 d7 b0 a2 bc bd 88 34 bd 27 2d 89 bd 1e 8e 89 3c
       -0.019859714 -0.044075716 -0.06698065 0.0167914
0000e0 7b c7 b2 bd 37 19 c3 3c 06 a1 9b bc 32 5d 19 3d
       -0.08729454 0.023815734 -0.01899768 0.037442394
0000f0 c7 ff 9b 3c f4 ca 35 bd ee 46 cb 3b ba 9a 82 3d
       0.019042863 -0.044383004 0.006203524 0.06377168
000100 70 61 a9 bd 0a 4a bd 3d 0d fb 57 bd a1 54 1b 3d
       -0.08270538 0.092426375 -0.052729655 0.037922505
000110 e4 3a 22 bd 35 22 01 3d 10 5e 94 3c e9 87 7a 3d
       -0.039606944 0.031526763 0.018111259 0.06116477
000120 61 e3 74 3d 19 c5 bb 3d 81 8a 80 3d 63 a3 83 3d
       0.059787158 0.09168453 0.062764175 0.06427648
000130 08 58 cf 3a 3b c7 8b 3b 36 79 3c 3d 0a 21 39 bd
       0.0015819082 0.0042656935 0.046014033 -0.045197524
000140 fd f5 81 bd 15 33 22 bd 30 e5 10 bc b6 7f 41 bd
       -0.06345747 -0.039599497 -0.008843705 -0.047240935
000150 7c 54 27 bc 97 93 2e 3d ca f5 38 bc 71 68 8f 3d
       -0.010213014 0.04262122 -0.011289069 0.070023425
000160 0a 74 9e 3d 1e e9 46 3d 00 14 d6 3c 07 a9 38 3d
       0.077369764 0.04856216 0.026132584 0.045083072
000170 96 96 94 3d 55 35 92 3d 8e f9 35 3d 16 a4 86 3d
       0.072552845 0.071390785 0.044427447 0.06574266
000180 d5 0f ba bc f2 75 ba 3b 0f 08 97 3d 2a c6 9e 3d
       -0.022712627 0.0056903297 0.07374584 0.077526405
000190 d6 42 08 bd b7 85 6a bd f5 34 4c 3d 95 b9 7f 3d
       -0.033266865 -0.057256427 0.04985519 0.062432844
0001a0 ff d2 90 3d 28 c2 de bc 92 36 99 bd 8d 7a b9 3c
       0.07071494 -0.02719219 -0.074811116 0.022641445
0001b0 dd bd a5 3d 44 5a 8d 3d a2 30 a0 bc 86 a0 0d bd
       0.08092854 0.069019824 -0.01955444 -0.034576915
0001c0 cc 8b bd bc 41 d6 69 bd 0f 11 64 bd 90 6f 21 3d
       -0.02313795 -0.057089094 -0.05568033 0.039413035
0001d0 32 30 a3 3d ae 22 af 3d c6 0a 92 3d a9 a8 9b 3c
       0.07968177 0.085515365 0.07130961 0.019001322
0001e0 e1 97 6f 3d de 30 78 bd 08 6a a0 3d 53 18 91 bd
       0.058494452 -0.06059348 0.07832724 -0.070847176
0001f0 23 8c 9d bd c4 fc 92 bd fc 2a 33 3b 38 32 65 3c
       -0.076927446 -0.071771175 0.0027338853 0.013989024
000200 cb 0e 0d 3c b0 b0 da 3c 7b 1a 07 bd 65 bf b8 3d
       0.008609484 0.02669558 -0.032984238 0.090208806
000210 c7 65 ab bc d6 16 0a bc 20 6d 1e bd 56 21 0e 3d
       -0.020922555 -0.008428296 -0.03867829 0.03469976
000220 b7 13 07 bd f3 ff 8f 3b e6 60 0c 3d e5 16 45 bd
       -0.032977786 0.004394525 0.034272097 -0.048117537
000230 81 94 28 bd db 08 14 3d ad c8 4a bd cf bc 9d bd
       -0.04115725 0.036141258 -0.049507786 -0.07702028
000240 d2 a6 65 3d 50 ca 41 bd fe 4b 8c bd 7b c9 73 bd
       0.056067295 -0.04731208 -0.06850432 -0.05951832
000250 3d 3a ce 3d 24 84 9e bd f8 b4 8c 3c 0e 65 a7 3d
       0.10069702 -0.077400476 0.017176136 0.081735715
000260 75 4d aa 3d bc 20 80 bd 2c 45 ff bc 1e 5d a6 bb
       0.08315555 -0.062562436 -0.031160913 -0.0050770184
000270 eb ce 28 3d 3c 33 28 bd 16 32 84 3c ed c5 a9 bd
       0.041212957 -0.041064486 0.016137164 -0.082897045
000280 b2 46 9c 3d 19 1c 37 3b 47 2a a7 3d e3 bd f0 bc
       0.076306716 0.0027940331 0.08162361 -0.02938742
000290 96 7f cc 3d 24 7d a6 3d f4 17 20 3d a1 62 d5 3c
       0.099852726 0.081293374 0.039085343 0.026048006
0002a0 8e 92 0e bb 1c 7f ca bb 12 b2 a3 3c a9 88 db bc
       -0.0021754834 -0.0061797034 0.019982371 -0.026798563
0002b0 bd c6 2b 3d 05 ce bd 39 6b 52 dd bc 29 02 cb bc
       0.04193758 0.00036202386 -0.027016839 -0.024781303
0002c0 43 e1 95 bd cf 95 54 3c c4 d2 d9 bb de 06 96 bd
       -0.07318356 0.01297517 -0.0066474397 -0.073255286
0002d0 8f 66 81 3d 14 c6 0d bd 9f b7 5e 3d cc b0 6c 3d
       0.063183896 -0.03461273 0.054374333 0.057785794
0002e0 ca 78 92 3c ed 34 b9 3d 95 25 b0 3c 67 3f 92 bd
       0.017879862 0.09043298 0.021502296 -0.07140999
0002f0 6e 29 95 3d ad 11 42 bd 1b 1b 8e bd e7 d7 0a 3d
       0.07283293 -0.04738014 -0.06938764 0.033897307
000300 79 38 95 bc f6 aa 04 3d db a2 11 bc c2 ee 11 3d
       -0.018215405 0.032389604 -0.008888925 0.035628088
000310 45 7b 78 bd 78 1a 01 3d e4 51 a4 3c f6 80 04 3d
       -0.060664434 0.031519383 0.02005858 0.03234955
000320 7b 8f 14 bd 2d 1b 13 3d 52 ce 66 bd 6d 45 42 3d
       -0.036269646 0.03591459 -0.056349106 0.04742949
000330 bf 28 39 bd 9f 70 74 bc b4 39 86 3d ee cc 5a bd
       -0.045204874 -0.014919429 0.06553975 -0.053418092
000340 a6 4d 99 bd a4 34 5a bd 39 f0 49 3c c9 66 ab bd
       -0.074855134 -0.05327286 0.01232534 -0.08369214
000350 18 57 d5 3b 68 a0 15 bd c8 e7 9a 3c 0a ca 80 bd
       0.0065106265 -0.03652993 0.01890935 -0.06288536
000360 af c0 15 bd d8 1e 4f 3d 1e e4 b1 bd 5f 1f b2 3c
       -0.03656071 0.050566524 -0.08686088 0.021743475
000370 2c 5b 28 bd 89 c7 ac bd c0 17 8c 3b cb 74 22 3d
       -0.041102573 -0.08436496 0.004275292 0.039662164
000380 2b 8a ee 3c 14 0c bf bb 33 1c 9b bc 0f bf 48 3d
       0.029118618 -0.0058302972 -0.018934345 0.049010333
000390 d9 c3 21 bd 75 56 c8 3d a4 97 59 bd e4 3e 7f 3d
       -0.039493416 0.09782115 -0.05312313 0.062315837
0003a0 ac 29 94 3c a8 df 6f 3d 04 8a af 3d 39 15 01 3d
       0.018086277 0.058562905 0.08571246 0.03151438
0003b0 2e 49 ea 3b b3 50 a2 bd 13 d6 83 bd 7e f9 2e bd
       0.007149837 -0.079255484 -0.06437316 -0.042718403
0003c0 57 1e 62 3d b3 db d0 3a d0 73 26 3d e4 5d 05 3d
       0.055204716 0.0015934616 0.04063779 0.032560244
0003d0 e4 e9 88 3c 7c 56 29 3d 02 53 90 bd 3f 20 b0 3d
       0.01671309 0.041342244 -0.070470825 0.085999005
0003e0 9b 24 bb 3d 9c 60 bd bc f7 6b ca bc 1f 9a 86 bd
       0.09137841 -0.023117356 -0.024709685 -0.06572365
0003f0 64 07 1e bd ca 35 b1 bd af 61 5c bd 0d ff 16 bd
       -0.038581267 -0.086528376 -0.053804096 -0.03686433

model.layers.3.bias f4 [5]
000000 4f db 98 3c bb e2 91 3d d0 de 84 39 c8 e5 b2 3c
       0.018659262 0.071233235 0.0002534301 0.021838084
000010 c4 27 9b 3d
       0.07575944

exp_avg f4 [2, 1, 4]
000000 70 ec 5a 38 cb 82 56 38 c4 9d 4c 38 35 86 42 38
       5.219545e-05 5.1143386e-05 4.878432e-05 4.6378194e-05
000010 70 ec 5a 38 cb 82 56 38 c4 9d 4c 38 35 86 42 38
       5.219545e-05 5.1143386e-05 4.878432e-05 4.6378194e-05

exp_avg_sq f4 [2, 1, 4]
000000 02 dc e5 32 6e a4 ec 32 1a 90 f2 32 de e3 f4 32
       2.6759157e-08 2.754879e-08 2.8238038e-08 2.850896e-08
000010 02 dc e5 32 6e a4 ec 32 1a 90 f2 32 de e3 f4 32
       2.6759157e-08 2.754879e-08 2.8238038e-08 2.850896e-08

exp_avg f4 [2]
000000 b4 62 02 3b b4 62 02 3b
       0.0019895257 0.0019895257

exp_avg_sq f4 [2]
000000 f4 76 5a 38 f4 76 5a 38
       5.2086034e-05 5.2086034e-05

exp_avg f4 [2, 1]
000000 56 2f 81 39 b3 32 0b b9
       0.00024640065 -0.0001327496

exp_avg_sq f4 [2, 1]
000000 bd e0 6c 35 19 f9 8c 34
       8.824389e-07 2.6258274e-07

exp_avg f4 [2]
000000 b7 18 9e bb e8 85 26 3b
       -0.0048247236 0.0025409404

exp_avg_sq f4 [2]
000000 a9 9e 9e 39 41 32 b3 38
       0.0003025432 8.544746e-05

exp_avg f4 [6, 2]
000000 d4 52 35 36 d6 44 a0 35 41 5a 13 36 a6 44 82 35
       2.7019314e-06 1.1940963e-06 2.1957242e-06 9.705734e-07
000010 37 8b 31 b5 c9 42 71 34 b7 64 34 36 f6 33 75 b5
       -6.614022e-07 2.246917e-07 2.6880714e-06 -9.1345225e-07
000020 91 02 b4 3b b7 54 21 3b 5f b1 9b 39 2a 84 0b 39
       0.00549347 0.0024617144 0.00029696056 0.00013305308

exp_avg_sq f4 [6, 2]
000000 94 b8 1a 2f 13 ef fe 2d 87 db c7 2e ea 69 a4 2d
       1.4071794e-10 2.8982627e-11 9.088468e-11 1.8691677e-11
000010 f6 45 27 2d eb f8 9c 2b 6e ca 13 2f 23 4b 8a 2d
       9.508385e-12 1.1153555e-12 1.344149e-10 1.5722151e-11
000020 4f 9e cc 39 ba 5f a9 38 2c 96 9d 35 1f c2 82 34
       0.0003902786 8.0763784e-05 1.1741117e-06 2.435563e-07

exp_avg f4 [6]
000000 c6 55 7a b6 61 74 4b b6 ce 1e 84 2e 19 e4 69 af
       -3.730283e-06 -3.0317099e-06 6.008137e-11 -2.1272263e-10
000010 0a 82 fa bb 4e a7 d8 b9
       -0.0076448964 -0.00041323382

exp_avg_sq f4 [6]
000000 b2 31 97 2f 08 30 43 2f 7d 94 12 1e 59 3c ed 1f
       2.750205e-10 1.7752211e-10 7.759882e-21 1.0047324e-19
000010 91 71 48 3a 58 84 1a 36
       0.0007646317 2.3024822e-06

exp_avg f4 [2, 2]
000000 c1 e5 ed 39 a4 2a 5f 39 ff 9c 97 bb a5 28 0e bb
       0.00045375343 0.00021282822 -0.0046268697 -0.0021691706

exp_avg_sq f4 [2, 2]
000000 d4 c6 1b 36 8c 39 09 35 d4 41 8f 39 6c 57 7e 38
       2.3212533e-06 5.112022e-07 0.0002732413 6.0639737e-05

exp_avg f4 [2]
000000 89 44 b5 ba dd d9 66 3c
       -0.0013829629 0.014090029

exp_avg_sq f4 [2]
000000 60 51 ba 37 99 b0 2e 3b
       2.2210821e-05 0.0026655553

exp_avg f4 [1, 2]
000000 08 fb 2b 3c c4 7a 2a bc
       0.010496862 -0.010405246

exp_avg_sq f4 [1, 2]
000000 20 79 b8 3a 4b bf af 3a
       0.0014074184 0.001340845

exp_avg f4 [128, 250]
000000 00 00 00 00 00 00 00 00 00 00 00 00 00 00 00 00
       0.0 0.0 0.0 0.0
000010 00 00 00 00 00 00 00 00 00 00 00 00 00 00 00 00
       0.0 0.0 0.0 0.0
000020 00 00 00 00 00 00 00 00 00 00 00 00 00 00 00 00
       0.0 0.0 0.0 0.0
000030 00 00 00 00 00 00 00 00 00 00 00 00 00 00 00 00
       0.0 0.0 0.0 0.0
000040 00 00 00 00 00 00 00 00 00 00 00 00 00 00 00 00
       0.0 0.0 0.0 0.0
000050 00 00 00 00 00 00 00 00 00 00 00 00 00 00 00 00
       0.0 0.0 0.0 0.0
000060 00 00 00 00 00 00 00 00 00 00 00 00 00 00 00 00
       0.0 0.0 0.0 0.0
000070 00 00 00 00 00 00 00 00 00 00 00 00 00 00 00 00
       0.0 0.0 0.0 0.0
000080 00 00 00 00 00 00 00 00 00 00 00 00 00 00 00 00
       0.0 0.0 0.0 0.0
000090 00 00 00 00 00 00 00 00 00 00 00 00 00 00 00 00
       0.0 0.0 0.0 0.0
0000a0 00 00 00 00 00 00 00 00 00 00 00 00 00 00 00 00
       0.0 0.0 0.0 0.0
0000b0 00 00 00 00 00 00 00 00 00 00 00 00 00 00 00 00
       0.0 0.0 0.0 0.0
0000c0 00 00 00 00 00 00 00 00 00 00 00 00 00 00 00 00
       0.0 0.0 0.0 0.0
0000d0 00 00 00 00 00 00 00 00 00 00 00 00 00 00 00 00
       0.0 0.0 0.0 0.0
0000e0 00 00 00 00 00 00 00 00 00 00 00 00 00 00 00 00
       0.0 0.0 0.0 0.0
0000f0 00 00 00 00 00 00 00 00 00 00 00 00 00 00 00 00
       0.0 0.0 0.0 0.0
000100 00 00 00 00 00 00 00 00 00 00 00 00 00 00 00 00
       0.0 0.0 0.0 0.0
000110 00 00 00 00 00 00 00 00 00 00 00 00 00 00 00 00
       0.0 0.0 0.0 0.0
000120 00 00 00 00 00 00 00 00 00 00 00 00 00 00 00 00
       0.0 0.0 0.0 0.0
000130 00 00 00 00 00 00 00 00 00 00 00 00 00 00 00 00
       0.0 0.0 0.0 0.0
000140 00 00 00 00 00 00 00 00 00 00 00 00 00 00 00 00
       0.0 0.0 0.0 0.0
000150 00 00 00 00 00 00 00 00 00 00 00 00 00 00 00 00
       0.0 0.0 0.0 0.0
000160 00 00 00 00 00 00 00 00 00 00 00 00 00 00 00 00
       0.0 0.0 0.0 0.0
000170 00 00 00 00 00 00 00 00 00 00 00 00 00 00 00 00
       0.0 0.0 0.0 0.0
000180 00 00 00 00 00 00 00 00 00 00 00 00 00 00 00 00
       0.0 0.0 0.0 0.0
000190 00 00 00 00 00 00 00 00 00 00 00 00 00 00 00 00
       0.0 0.0 0.0 0.0
0001a0 00 00 00 00 00 00 00 00 00 00 00 00 00 00 00 00
       0.0 0.0 0.0 0.0
0001b0 00 00 00 00 00 00 00 00 00 00 00 00 00 00 00 00
       0.0 0.0 0.0 0.0
0001c0 00 00 00 00 00 00 00 00 00 00 00 00 00 00 00 00
       0.0 0.0 0.0 0.0
0001d0 00 00 00 00 00 00 00 00 00 00 00 00 00 00 00 00
       0.0 0.0 0.0 0.0
0001e0 00 00 00 00 00 00 00 00 00 00 00 00 00 00 00 00
       0.0 0.0 0.0 0.0
0001f0 00 00 00 00 00 00 00 00 00 00 00 00 00 00 00 00
       0.0 0.0 0.0 0.0
000200 00 00 00 00 00 00 00 00 00 00 00 00 00 00 00 00
       0.0 0.0 0.0 0.0
000210 00 00 00 00 00 00 00 00 00 00 00 00 00 00 00 00
       0.0 0.0 0.0 0.0
000220 00 00 00 00 00 00 00 00 00 00 00 00 00 00 00 00
       0.0 0.0 0.0 0.0
000230 00 00 00 00 00 00 00 00 00 00 00 00 00 00 00 00
       0.0 0.0 0.0 0.0
000240 00 00 00 00 00 00 00 00 00 00 00 00 00 00 00 00
       0.0 0.0 0.0 0.0
000250 00 00 00 00 00 00 00 00 00 00 00 00 00 00 00 00
       0.0 0.0 0.0 0.0
000260 00 00 00 00 00 00 00 00 00 00 00 00 00 00 00 00
       0.0 0.0 0.0 0.0
000270 00 00 00 00 00 00 00 00 00 00 00 00 00 00 00 00
       0.0 0.0 0.0 0.0
000280 00 00 00 00 00 00 00 00 00 00 00 00 00 00 00 00
       0.0 0.0 0.0 0.0
000290 00 00 00 00 00 00 00 00 00 00 00 00 00 00 00 00
       0.0 0.0 0.0 0.0
0002a0 00 00 00 00 00 00 00 00 00 00 00 00 00 00 00 00
       0.0 0.0 0.0 0.0
0002b0 00 00 00 00 00 00 00 00 00 00 00 00 00 00 00 00
       0.0 0.0 0.0 0.0
0002c0 00 00 00 00 00 00 00 00 00 00 00 00 00 00 00 00
       0.0 0.0 0.0 0.0
0002d0 00 00 00 00 00 00 00 00 00 00 00 00 00 00 00 00
       0.0 0.0 0.0 0.0
0002e0 00 00 00 00 00 00 00 00 00 00 00 00 00 00 00 00
       0.0 0.0 0.0 0.0
0002f0 00 00 00 00 00 00 00 00 00 00 00 00 00 00 00 00
       0.0 0.0 0.0 0.0
000300 00 00 00 00 00 00 00 00 00 00 00 00 00 00 00 00
       0.0 0.0 0.0 0.0
000310 00 00 00 00 00 00 00 00 00 00 00 00 00 00 00 00
       0.0 0.0 0.0 0.0
000320 00 00 00 00 00 00 00 00 00 00 00 00 00 00 00 00
       0.0 0.0 0.0 0.0
000330 00 00 00 00 00 00 00 00 00 00 00 00 00 00 00 00
       0.0 0.0 0.0 0.0
000340 00 00 00 00 00 00 00 00 00 00 00 00 00 00 00 00
       0.0 0.0 0.0 0.0
000350 00 00 00 00 00 00 00 00 00 00 00 00 00 00 00 00
       0.0 0.0 0.0 0.0
000360 00 00 00 00 00 00 00 00 00 00 00 00 00 00 00 00
       0.0 0.0 0.0 0.0
000370 00 00 00 00 00 00 00 00 00 00 00 00 00 00 00 00
       0.0 0.0 0.0 0.0
000380 00 00 00 00 00 00 00 00 00 00 00 00 00 00 00 00
       0.0 0.0 0.0 0.0
000390 00 00 00 00 00 00 00 00 00 00 00 00 00 00 00 00
       0.0 0.0 0.0 0.0
0003a0 00 00 00 00 00 00 00 00 00 00 00 00 00 00 00 00
       0.0 0.0 0.0 0.0
0003b0 00 00 00 00 00 00 00 00 00 00 00 00 00 00 00 00
       0.0 0.0 0.0 0.0
0003c0 00 00 00 00 00 00 00 00 00 00 00 00 00 00 00 00
       0.0 0.0 0.0 0.0
0003d0 00 00 00 00 00 00 00 00 00 00 00 00 00 00 00 00
       0.0 0.0 0.0 0.0
0003e0 00 00 00 00 00 00 00 00 c3 4e d3 2b d8 4e d3 2b
       0.0 0.0 1.5014312e-12 1.5014335e-12
0003f0 be 4e d3 2b e7 4e d3 2b d8 4e d3 2b 94 4e d3 2b
       1.5014307e-12 1.5014352e-12 1.5014335e-12 1.5014262e-12

exp_avg_sq f4 [128, 250]
000000 00 00 00 00 00 00 00 00 00 00 00 00 00 00 00 00
       0.0 0.0 0.0 0.0
000010 00 00 00 00 00 00 00 00 00 00 00 00 00 00 00 00
       0.0 0.0 0.0 0.0
000020 00 00 00 00 00 00 00 00 00 00 00 00 00 00 00 00
       0.0 0.0 0.0 0.0
000030 00 00 00 00 00 00 00 00 00 00 00 00 00 00 00 00
       0.0 0.0 0.0 0.0
000040 00 00 00 00 00 00 00 00 00 00 00 00 00 00 00 00
       0.0 0.0 0.0 0.0
000050 00 00 00 00 00 00 00 00 00 00 00 00 00 00 00 00
       0.0 0.0 0.0 0.0
000060 00 00 00 00 00 00 00 00 00 00 00 00 00 00 00 00
       0.0 0.0 0.0 0.0
000070 00 00 00 00 00 00 00 00 00 00 00 00 00 00 00 00
       0.0 0.0 0.0 0.0
000080 00 00 00 00 00 00 00 00 00 00 00 00 00 00 00 00
       0.0 0.0 0.0 0.0
000090 00 00 00 00 00 00 00 00 00 00 00 00 00 00 00 00
       0.0 0.0 0.0 0.0
0000a0 00 00 00 00 00 00 00 00 00 00 00 00 00 00 00 00
       0.0 0.0 0.0 0.0
0000b0 00 00 00 00 00 00 00 00 00 00 00 00 00 00 00 00
       0.0 0.0 0.0 0.0
0000c0 00 00 00 00 00 00 00 00 00 00 00 00 00 00 00 00
       0.0 0.0 0.0 0.0
0000d0 00 00 00 00 00 00 00 00 00 00 00 00 00 00 00 00
       0.0 0.0 0.0 0.0
0000e0 00 00 00 00 00 00 00 00 00 00 00 00 00 00 00 00
       0.0 0.0 0.0 0.0
0000f0 00 00 00 00 00 00 00 00 00 00 00 00 00 00 00 00
       0.0 0.0 0.0 0.0
000100 00 00 00 00 00 00 00 00 00 00 00 00 00 00 00 00
       0.0 0.0 0.0 0.0
000110 00 00 00 00 00 00 00 00 00 00 00 00 00 00 00 00
       0.0 0.0 0.0 0.0
000120 00 00 00 00 00 00 00 00 00 00 00 00 00 00 00 00
       0.0 0.0 0.0 0.0
000130 00 00 00 00 00 00 00 00 00 00 00 00 00 00 00 00
       0.0 0.0 0.0 0.0
000140 00 00 00 00 00 00 00 00 00 00 00 00 00 00 00 00
       0.0 0.0 0.0 0.0
000150 00 00 00 00 00 00 00 00 00 00 00 00 00 00 00 00
       0.0 0.0 0.0 0.0
000160 00 00 00 00 00 00 00 00 00 00 00 00 00 00 00 00
       0.0 0.0 0.0 0.0
000170 00 00 00 00 00 00 00 00 00 00 00 00 00 00 00 00
       0.0 0.0 0.0 0.0
000180 00 00 00 00 00 00 00 00 00 00 00 00 00 00 00 00
       0.0 0.0 0.0 0.0
000190 00 00 00 00 00 00 00 00 00 00 00 00 00 00 00 00
       0.0 0.0 0.0 0.0
0001a0 00 00 00 00 00 00 00 00 00 00 00 00 00 00 00 00
       0.0 0.0 0.0 0.0
0001b0 00 00 00 00 00 00 00 00 00 00 00 00 00 00 00 00
       0.0 0.0 0.0 0.0
0001c0 00 00 00 00 00 00 00 00 00 00 00 00 00 00 00 00
       0.0 0.0 0.0 0.0
0001d0 00 00 00 00 00 00 00 00 00 00 00 00 00 00 00 00
       0.0 0.0 0.0 0.0
0001e0 00 00 00 00 00 00 00 00 00 00 00 00 00 00 00 00
       0.0 0.0 0.0 0.0
0001f0 00 00 00 00 00 00 00 00 00 00 00 00 00 00 00 00
       0.0 0.0 0.0 0.0
000200 00 00 00 00 00 00 00 00 00 00 00 00 00 00 00 00
       0.0 0.0 0.0 0.0
000210 00 00 00 00 00 00 00 00 00 00 00 00 00 00 00 00
       0.0 0.0 0.0 0.0
000220 00 00 00 00 00 00 00 00 00 00 00 00 00 00 00 00
       0.0 0.0 0.0 0.0
000230 00 00 00 00 00 00 00 00 00 00 00 00 00 00 00 00
       0.0 0.0 0.0 0.0
000240 00 00 00 00 00 00 00 00 00 00 00 00 00 00 00 00
       0.0 0.0 0.0 0.0
000250 00 00 00 00 00 00 00 00 00 00 00 00 00 00 00 00
       0.0 0.0 0.0 0.0
000260 00 00 00 00 00 00 00 00 00 00 00 00 00 00 00 00
       0.0 0.0 0.0 0.0
000270 00 00 00 00 00 00 00 00 00 00 00 00 00 00 00 00
       0.0 0.0 0.0 0.0
000280 00 00 00 00 00 00 00 00 00 00 00 00 00 00 00 00
       0.0 0.0 0.0 0.0
000290 00 00 00 00 00 00 00 00 00 00 00 00 00 00 00 00
       0.0 0.0 0.0 0.0
0002a0 00 00 00 00 00 00 00 00 00 00 00 00 00 00 00 00
       0.0 0.0 0.0 0.0
0002b0 00 00 00 00 00 00 00 00 00 00 00 00 00 00 00 00
       0.0 0.0 0.0 0.0
0002c0 00 00 00 00 00 00 00 00 00 00 00 00 00 00 00 00
       0.0 0.0 0.0 0.0
0002d0 00 00 00 00 00 00 00 00 00 00 00 00 00 00 00 00
       0.0 0.0 0.0 0.0
0002e0 00 00 00 00 00 00 00 00 00 00 00 00 00 00 00 00
       0.0 0.0 0.0 0.0
0002f0 00 00 00 00 00 00 00 00 00 00 00 00 00 00 00 00
       0.0 0.0 0.0 0.0
000300 00 00 00 00 00 00 00 00 00 00 00 00 00 00 00 00
       0.0 0.0 0.0 0.0
000310 00 00 00 00 00 00 00 00 00 00 00 00 00 00 00 00
       0.0 0.0 0.0 0.0
000320 00 00 00 00 00 00 00 00 00 00 00 00 00 00 00 00
       0.0 0.0 0.0 0.0
000330 00 00 00 00 00 00 00 00 00 00 00 00 00 00 00 00
       0.0 0.0 0.0 0.0
000340 00 00 00 00 00 00 00 00 00 00 00 00 00 00 00 00
       0.0 0.0 0.0 0.0
000350 00 00 00 00 00 00 00 00 00 00 00 00 00 00 00 00
       0.0 0.0 0.0 0.0
000360 00 00 00 00 00 00 00 00 00 00 00 00 00 00 00 00
       0.0 0.0 0.0 0.0
000370 00 00 00 00 00 00 00 00 00 00 00 00 00 00 00 00
       0.0 0.0 0.0 0.0
000380 00 00 00 00 00 00 00 00 00 00 00 00 00 00 00 00
       0.0 0.0 0.0 0.0
000390 00 00 00 00 00 00 00 00 00 00 00 00 00 00 00 00
       0.0 0.0 0.0 0.0
0003a0 00 00 00 00 00 00 00 00 00 00 00 00 00 00 00 00
       0.0 0.0 0.0 0.0
0003b0 00 00 00 00 00 00 00 00 00 00 00 00 00 00 00 00
       0.0 0.0 0.0 0.0
0003c0 00 00 00 00 00 00 00 00 00 00 00 00 00 00 00 00
       0.0 0.0 0.0 0.0
0003d0 00 00 00 00 00 00 00 00 00 00 00 00 00 00 00 00
       0.0 0.0 0.0 0.0
0003e0 00 00 00 00 00 00 00 00 07 cb b7 32 1f cb b7 32
       0.0 0.0 2.139633e-08 2.1396373e-08
0003f0 fc ca b7 32 41 cb b7 32 1b cb b7 32 c0 ca b7 32
       2.139631e-08 2.1396433e-08 2.1396366e-08 2.1396204e-08

exp_avg f4 [128]
000000 00 00 00 00 80 5c 97 2d 37 27 05 bb 6e ef 3f 3a
       0.0 1.720779e-11 -0.0020317563 0.00073217496
000010 63 06 76 2c 65 9c 2e 2c 00 00 00 00 d2 97 33 2c
       3.4962248e-12 2.4813704e-12 0.0 2.5521707e-12
000020 30 dd a5 2b 00 00 00 00 59 0c 20 ba 00 00 00 00
       1.1785347e-12 0.0 -0.00061053556 0.0
000030 00 00 00 00 00 00 00 00 00 00 00 00 71 ab 32 2b
       0.0 0.0 0.0 6.3476226e-13
000040 74 48 33 3a 00 00 00 00 1a 92 9e ba bd 9e c0 2b
       0.00068391045 0.0 -0.0012097985 1.3686479e-12
000050 a9 19 96 ba f7 5b 42 2d 00 00 00 00 b7 02 ba ba
       -0.0011451739 1.10480436e-11 0.0 -0.0014191483
000060 46 60 69 39 11 36 00 2d 00 00 00 00 4c 1e d4 2b
       0.00022256476 7.287963e-12 0.0 1.5071915e-12
000070 00 00 00 00 e4 f5 d1 2b 1d 2a bc 2c 00 00 00 00
       0.0 1.4918592e-12 5.347957e-12 0.0
000080 4b f9 8b 2c 92 87 1e 39 d8 40 be b8 e4 fa ed ba
       3.9782947e-12 0.00015118558 -9.071984e-05 -0.0018156436
000090 99 14 b5 3a 53 1d 83 b9 c4 97 aa 2d 00 00 00 00
       0.0013815343 -0.00025008115 1.939416e-11 0.0
0000a0 00 00 00 00 e5 c0 2e 2c 4f cd 35 ba a7 5b d5 2d
       0.0 2.4833965e-12 -0.00069351954 2.4255998e-11
0000b0 00 00 00 00 17 f6 79 2c 9c 83 16 ba 00 00 00 00
       0.0 3.5521636e-12 -0.0005741657 0.0
0000c0 3b d1 87 2f 00 00 00 00 2c a1 ee 2c 8d 08 d0 2c
       2.4705024e-10 0.0 6.7822605e-12 5.912665e-12
0000d0 1c 23 a9 2d 2b a8 14 2b 00 00 00 00 00 00 00 00
       1.9228667e-11 5.281354e-13 0.0 0.0
0000e0 00 00 00 00 4c f2 3c ba 0d a8 f7 2b 59 ff 96 2c
       0.0 -0.0007207736 1.7597049e-12 4.2916057e-12
0000f0 00 00 00 00 a4 d9 7d ba 14 75 cd ba 00 00 00 00
       0.0 -0.0009683615 -0.0015675151 0.0
000100 00 00 00 00 f6 af af 2a 64 c7 9f 2c 35 df 0e 2d
       0.0 3.1208342e-13 4.5411886e-12 8.121327e-12
000110 7f eb 8a 2c 05 49 c6 ba 00 00 00 00 00 00 00 00
       3.9483412e-12 -0.0015127963 0.0 0.0
000120 0c d5 b1 2c 23 60 e4 2d 06 4c ed 28 00 00 00 00
       5.0542955e-12 2.5963292e-11 2.6345256e-14 0.0
000130 00 00 00 00 6a 6b c1 b9 00 00 00 00 a8 3d 7c 2c
       0.0 -0.00036891858 0.0 3.584558e-12
000140 fc 03 01 2c 6a 19 92 2b 00 00 00 00 00 00 00 00
       1.8334214e-12 1.0380978e-12 0.0 0.0
000150 96 2e e8 2b 00 00 00 00 0c 34 59 2c 00 00 00 00
       1.6497522e-12 0.0 3.0866447e-12 0.0
000160 0c 2f 6d ba 4b a0 d8 2c 00 00 00 00 00 00 00 00
       -0.0009047843 6.1568853e-12 0.0 0.0
000170 88 30 be 2b 00 00 00 00 00 00 00 00 00 00 00 00
       1.3513782e-12 0.0 0.0 0.0
000180 60 2b 84 2c 65 2f 83 2a 00 00 00 00 90 b2 64 ba
       3.7564812e-12 2.330316e-13 0.0 -0.00087241177
000190 93 41 f4 2b 12 cf 9a 3a 00 00 00 00 e2 2f e0 b9
       1.7355443e-12 0.0011810979 0.0 -0.00042760285
0001a0 6c c4 a7 ba 65 96 75 2c 00 00 00 00 c9 8b 93 35
       -0.0012799627 3.490008e-12 0.0 1.0993036e-06
0001b0 44 5b 2e 39 00 00 00 00 19 3d 92 2b 00 00 00 00
       0.00016627932 0.0 1.0390882e-12 0.0
0001c0 80 10 8d b7 96 d6 cc 2c ed df 85 2c 26 bd be 2d
       -1.6816193e-05 5.8218525e-12 3.804948e-12 2.1684498e-11
0001d0 00 00 00 00 00 00 00 00 00 00 00 00 1c c0 a5 39
       0.0 0.0 0.0 0.00031614385
0001e0 d8 88 4b ba 00 00 00 00 00 00 00 00 00 00 00 00
       -0.0007764227 0.0 0.0 0.0
0001f0 00 00 00 00 00 00 00 00 03 4c 8d ba 00 00 00 00
       0.0 0.0 -0.00107801 0.0

exp_avg_sq f4 [128]
000000 00 00 00 00 53 3d 43 36 16 30 d1 37 dd 67 69 37
       0.0 2.909296e-06 2.4937133e-05 1.3912065e-05
000010 6b cb 01 35 f6 aa cb 34 00 00 00 00 c4 cf d1 34
       4.8352257e-07 3.7936087e-07 0.0 3.9080453e-07
000020 7c 4c b2 33 00 00 00 00 91 ad ae 37 00 00 00 00
       8.302683e-08 0.0 2.082324e-05 0.0
000030 00 00 00 00 00 00 00 00 00 00 00 00 8b c7 66 33
       0.0 0.0 0.0 5.373253e-08
000040 57 bd 8a 37 00 00 00 00 0a 2f 54 37 58 29 f6 33
       1.653905e-05 0.0 1.2647137e-05 1.1462788e-07
000050 2c 49 27 38 a7 83 44 36 00 00 00 00 26 35 98 37
       3.988405e-05 2.9282908e-06 0.0 1.8144561e-05
000060 0d 8b 98 37 9a 8c 89 35 00 00 00 00 87 f1 11 34
       1.8184563e-05 1.0248216e-06 0.0 1.3592044e-07
000070 00 00 00 00 94 9a b6 33 aa 50 e5 35 00 00 00 00
       0.0 8.503153e-08 1.7085306e-06 0.0
000080 5e 27 24 35 1a 2e a6 36 b2 28 9d 37 08 08 2f 37
       6.115205e-07 4.9525524e-06 1.8734809e-05 1.0432683e-05
000090 46 5a 76 37 d2 5c 27 37 dc 22 84 35 00 00 00 00
       1.4683761e-05 9.975587e-06 9.844912e-07 0.0
0000a0 00 00 00 00 87 01 33 35 03 a2 c9 36 c4 60 d2 36
       0.0 6.668492e-07 6.0091274e-06 6.2697527e-06
0000b0 00 00 00 00 5d d8 e1 35 f2 18 1e 37 00 00 00 00
       0.0 1.6826776e-06 9.423342e-06 0.0
0000c0 98 be ac 35 00 00 00 00 82 4b 63 35 5e 1f 0c 36
       1.2870469e-06 0.0 8.467397e-07 2.0879884e-06
0000d0 55 6c 55 36 56 1d 8f 32 00 00 00 00 00 00 00 00
       3.180253e-06 1.6660731e-08 0.0 0.0
0000e0 00 00 00 00 dd a2 80 37 7d 8b 46 34 bc 5e d0 34
       0.0 1.5334628e-05 1.8490933e-07 3.8811947e-07
0000f0 00 00 00 00 21 17 08 37 88 b8 7e 37 00 00 00 00
       0.0 8.111617e-06 1.5182544e-05 0.0
000100 00 00 00 00 c4 60 bc 33 53 30 4d 35 ce 53 20 36
       0.0 8.772034e-08 7.643877e-07 2.3890639e-06
000110 4e 42 5e 34 f5 cc 32 38 00 00 00 00 00 00 00 00
       2.0699483e-07 4.262939e-05 0.0 0.0
000120 eb 22 1b 35 f3 fd b9 35 41 8a cb 2e 00 00 00 00
       5.779281e-07 1.3857483e-06 9.25593e-11 0.0
000130 00 00 00 00 b1 19 7f 36 00 00 00 00 e7 81 ff 34
       0.0 3.8012915e-06 0.0 4.7591968e-07
000140 b8 a9 f0 34 1b 4f 1a 34 00 00 00 00 00 00 00 00
       4.482697e-07 1.4371146e-07 0.0 0.0
000150 c9 14 38 34 00 00 00 00 e8 35 f2 34 00 00 00 00
       1.7143897e-07 0.0 4.5115235e-07 0.0
000160 cb 2a 3b 37 76 8c b7 35 00 00 00 00 00 00 00 00
       1.1156032e-05 1.3675442e-06 0.0 0.0
000170 9c 15 eb 33 00 00 00 00 00 00 00 00 00 00 00 00
       1.0946971e-07 0.0 0.0 0.0
000180 2b aa 62 35 50 d3 f8 31 00 00 00 00 9c cb 08 37
       8.443919e-07 7.2417734e-09 0.0 8.153638e-06
000190 35 a7 d7 34 75 3f 80 37 00 00 00 00 37 54 ce 36
       4.016853e-07 1.5288339e-05 0.0 6.1490823e-06
0001a0 b4 8b 58 37 ea 2d de 34 00 00 00 00 6a 2f 7e 36
       1.290713e-05 4.138413e-07 0.0 3.7876548e-06
0001b0 90 5b ec 36 00 00 00 00 8a 9a 1a 34 00 00 00 00
       7.0440074e-06 0.0 1.4398589e-07 0.0
0001c0 26 c5 33 37 eb d6 a1 35 52 4d aa 34 67 a0 92 35
       1.0715134e-05 1.2057984e-06 3.1721225e-07 1.0924531e-06
0001d0 00 00 00 00 00 00 00 00 00 00 00 00 fb 11 f6 36
       0.0 0.0 0.0 7.3334645e-06
0001e0 bd 65 6b 37 00 00 00 00 00 00 00 00 00 00 00 00
       1.4030779e-05 0.0 0.0 0.0
0001f0 00 00 00 00 00 00 00 00 a0 6d e5 36 00 00 00 00
       0.0 0.0 6.837494e-06 0.0

exp_avg f4 [5, 128]
000000 00 00 00 00 90 1e 2a ad ce 08 da bb 71 b1 19 ba
       0.0 -9.6701674e-12 -0.0066538816 -0.00058629276
000010 5f 8b f8 ab 99 c2 18 ab 00 00 00 00 79 5e 6d ab
       -1.7660143e-12 -5.4271306e-13 0.0 -8.433042e-13
000020 6b 0c 02 ab 00 00 00 00 7d 9b 5b bb 00 00 00 00
       -4.620251e-13 0.0 -0.0033509426 0.0
000030 00 00 00 00 00 00 00 00 00 00 00 00 9d 8e a8 aa
       0.0 0.0 0.0 -2.9941753e-13
000040 1f 5a 11 ba 00 00 00 00 77 9d a7 bb d6 39 c3 aa
       -0.000554474 0.0 -0.005115207 -3.467909e-13
000050 29 98 ae bb 1c 74 59 ac 00 00 00 00 10 b6 bc bb
       -0.0053281975 -3.0902008e-12 0.0 -0.005759008
000060 e0 14 2f bb 2b d8 b7 ac 00 00 00 00 72 fa 20 ab
       -0.0026715323 -5.2251723e-12 0.0 -5.719098e-13
000070 00 00 00 00 e2 b9 7b ab bd ba 44 ab 00 00 00 00
       0.0 -8.943108e-13 -6.989234e-13 0.0
000080 01 59 81 ac 26 8a 86 bb 42 64 9e bb cd 3d 9b bb
       -3.676282e-12 -0.004105824 -0.004833729 -0.004737592
000090 14 a3 10 bb 4b 21 3a bb 9c 04 50 2d 00 00 00 00
       -0.0022069858 -0.0028401192 1.1824455e-11 0.0
0000a0 00 00 00 00 43 b4 12 a8 43 41 08 bb 8f b5 16 ad
       0.0 -8.143716e-15 -0.0020790852 -8.566827e-12
0000b0 00 00 00 00 26 27 54 aa da 8d 95 bb 00 00 00 00
       0.0 -1.8842965e-13 -0.004564029 0.0
0000c0 af 5e 96 ae 00 00 00 00 f6 60 97 ac 03 4d bc aa
       -6.8380294e-11 0.0 -4.302443e-12 -3.3448946e-13
0000d0 9f 60 62 ad bd d0 de aa 00 00 00 00 00 00 00 00
       -1.2868067e-11 -3.9579963e-13 0.0 0.0
0000e0 00 00 00 00 20 ce af bb a9 b9 21 ab 6c 97 71 ac
       0.0 -0.005365148 -5.7456345e-13 -3.4332216e-12
0000f0 00 00 00 00 04 05 b5 ba f0 ec a9 bb 00 00 00 00
       0.0 -0.0013810699 -0.005185716 0.0
000100 00 00 00 00 32 73 96 ab a2 fb fa ab 68 73 9d ab
       0.0 -1.0690114e-12 -1.783341e-12 -1.1187553e-12
000110 c2 9b 10 a8 b7 0e bf bb 00 00 00 00 00 00 00 00
       -8.02738e-15 -0.0058306116 0.0 0.0
000120 c3 9f f0 ac 11 37 0c ad d9 ec 44 aa 00 00 00 00
       -6.8389474e-12 -7.970306e-12 -1.749047e-13 0.0
000130 00 00 00 00 4e 24 9a bb 00 00 00 00 51 b2 a2 ab
       0.0 -0.004704035 0.0 -1.1560285e-12
000140 87 66 6e aa 37 55 28 aa 00 00 00 00 00 00 00 00
       -2.1174218e-13 -1.4950962e-13 0.0 0.0
000150 0e 44 24 ab 00 00 00 00 0f 69 20 ac 00 00 00 00
       -5.835895e-13 0.0 -2.2795687e-12 0.0
000160 21 2e ad ba c2 a5 e3 ab 00 00 00 00 00 00 00 00
       -0.00132126 -1.6175327e-12 0.0 0.0
000170 40 0a 4f ab 00 00 00 00 00 00 00 00 00 00 00 00
       -7.35554e-13 0.0 0.0 0.0
000180 73 4d 44 ab 6f 7c 1d a9 00 00 00 00 79 c1 84 ba
       -6.974067e-13 -3.4968932e-14 0.0 -0.001012846
000190 6b 1d 6a aa 35 0f ad bb 00 00 00 00 64 78 a4 bb
       -2.0793581e-13 -0.005281354 0.0 -0.0050192345
0001a0 5f fa c8 bb 33 e2 4c ac 00 00 00 00 66 a8 3e b1
       -0.006133362 -2.911571e-12 0.0 -2.7744362e-09
0001b0 13 52 a0 ba 00 00 00 00 ff 46 0d aa 00 00 00 00
       -0.0012231491 0.0 -1.2547947e-13 0.0
0001c0 db fd b1 bb 11 86 83 ab 94 16 ae ac 3b c6 22 ad
       -0.0054318733 -9.345321e-13 -4.947884e-12 -9.25265e-12
0001d0 00 00 00 00 00 00 00 00 00 00 00 00 06 69 90 bb
       0.0 0.0 0.0 -0.004407051
0001e0 2a 6c 8a bb 00 00 00 00 00 00 00 00 00 00 00 00
       -0.00422432 0.0 0.0 0.0
0001f0 00 00 00 00 00 00 00 00 5e 82 0b bb 00 00 00 00
       0.0 0.0 -0.0021287422 0.0
000200 00 00 00 00 cd 99 48 ad 91 c4 bc 3b e0 a1 20 3a
       0.0 -1.1402834e-11 0.005760737 0.0006127637
000210 fb e1 16 ac aa 08 31 ab 00 00 00 00 de c9 8d ab
       -2.1441726e-12 -6.2895056e-13 0.0 -1.0074682e-12
000220 91 42 15 ab 00 00 00 00 a7 c8 4a 3b 00 00 00 00
       -5.3027813e-13 0.0 0.0030942352 0.0
000230 00 00 00 00 00 00 00 00 00 00 00 00 84 09 b5 aa
       0.0 0.0 0.0 -3.2158662e-13
000240 0a 74 02 3a 00 00 00 00 71 22 8f 3b 8a 22 d7 aa
       0.00049763976 0.0 0.0043681194 -3.8215638e-13
000250 6e f6 97 3b 9b ec 8c ac 00 00 00 00 57 02 a3 3b
       0.004637531 -4.005308e-12 0.0 0.004974644
000260 b0 84 21 3b b7 7f e7 ac 00 00 00 00 4f 21 3b ab
       0.0024645738 -6.579594e-12 0.0 -6.648197e-13
000270 00 00 00 00 7d f2 96 ab 64 4d 69 ab 00 00 00 00
       0.0 -1.0725445e-12 -8.288563e-13 0.0
000280 c8 d5 92 ac 6c 3c 69 3b c1 3a 8d 3b 3c 8a 87 3b
       -4.173304e-12 0.0035588993 0.0043099825 0.004136352
000290 ed 83 06 3b 0d 01 29 3b f3 fd 1f ac 00 00 00 00
       0.0020525411 0.002578798 -2.273623e-12 0.0
0002a0 00 00 00 00 49 fb 50 a8 85 68 f3 3a 9b f5 34 ad
       0.0 -1.1600808e-14 0.0018570578 -1.0286351e-11
0002b0 00 00 00 00 76 27 64 aa 8f b4 82 3b 00 00 00 00
       0.0 -2.0264159e-13 0.0039888094 0.0
0002c0 ed b8 20 ae 00 00 00 00 36 a5 c0 ac 18 99 cd aa
       -3.6544035e-11 0.0 -5.4753103e-12 -3.6521545e-13
0002d0 88 1c 82 ad d3 5c fb aa 00 00 00 00 00 00 00 00
       -1.479196e-11 -4.4650966e-13 0.0 0.0
0002e0 00 00 00 00 51 12 97 3b 11 38 3c ab b2 b2 9b ac
       0.0 0.004610338 -6.6868825e-13 -4.425204e-12
0002f0 00 00 00 00 8b d3 81 3a 65 8b 8f 3b 00 00 00 00
       0.0 0.0009904964 0.004380631 0.0
000300 00 00 00 00 b9 ea c5 ab d4 79 18 ac 2e e3 bd ab
       0.0 -1.406284e-12 -2.1668127e-12 -1.3492313e-12
000310 95 06 a6 a8 b0 bf a4 3b 00 00 00 00 00 00 00 00
       -1.8432557e-14 0.0050277337 0.0 0.0
000320 35 8c 12 ad 02 f0 1e ad d0 c4 53 aa 00 00 00 00
       -8.330271e-12 -9.034553e-12 -1.8808848e-13 0.0
000330 00 00 00 00 bd e2 81 3b 00 00 00 00 99 95 c4 ab
       0.0 0.003963797 0.0 -1.3968159e-12
000340 47 14 80 aa 70 48 35 aa 00 00 00 00 00 00 00 00
       -2.2751438e-13 -1.6101161e-13 0.0 0.0
000350 4e d7 3f ab 00 00 00 00 12 bf 49 ac 00 00 00 00
       -6.8155627e-13 0.0 -2.8669883e-12 0.0
000360 13 2a aa 3a da 16 0a ac 00 00 00 00 00 00 00 00
       0.001298251 -1.9623665e-12 0.0 0.0
000370 3e b3 75 ab 00 00 00 00 00 00 00 00 00 00 00 00
       -8.7290234e-13 0.0 0.0 0.0
000380 3a ae 68 ab 12 b4 28 a9 00 00 00 00 63 26 82 3a
       -8.2664745e-13 -3.745968e-14 0.0 0.0009929653
000390 a2 0d 7b aa 8a 61 94 3b 00 00 00 00 15 db 90 3b
       -2.2298008e-13 0.004528229 0.0 0.004420648
0003a0 3e 3c af 3b 61 03 84 ac 00 00 00 00 6a f4 94 35
       0.0053477576 -3.7520408e-12 0.0 1.1097993e-06
0003b0 0c 6d a5 3a 00 00 00 00 d7 80 17 aa 00 00 00 00
       0.0012621 0.0 -1.3456194e-13 0.0
0003c0 fe a3 95 3b e8 5c 9e ab b7 e5 c9 ac 6c 7f 41 ad
       0.0045666685 -1.1252362e-12 -5.738267e-12 -1.0999073e-11
0003d0 00 00 00 00 00 00 00 00 00 00 00 00 c7 b7 7f 3b
       0.0 0.0 0.0 0.0039019452
0003e0 52 1c 73 3b 00 00 00 00 00 00 00 00 00 00 00 00
       0.0037095738 0.0 0.0 0.0
0003f0 00 00 00 00 00 00 00 00 47 35 e8 3a 00 00 00 00
       0.0 0.0 0.0017716073 0.0
